critic.pth (torch, 861071 bytes, 5 tensors)

layer1.weight f4 [512, 290]
000000 70 20 72 bc 78 02 f9 3b 90 d8 13 3b 55 2a 41 3d
       -0.0147782415 0.0075991713 0.0022559501 0.04715951
000010 3e f9 a4 bc be 32 5b bd 10 09 c2 bc de 60 d9 bc
       -0.02013838 -0.05351519 -0.023685962 -0.026535448
000020 0b 08 6a 3d a6 52 d4 3c 74 e1 17 bd f5 df 2a 3d
       0.057136577 0.025918316 -0.037080243 0.04171749
000030 ef 9e 58 3d 70 5d 93 bb 10 f6 ad bc 58 dc 0b bc
       0.052885946 -0.0044972226 -0.021235496 -0.008536421
000040 fb 46 0d 3d ac 79 67 bd a4 48 6f 3c d0 b5 0f bb
       0.03449152 -0.05651252 0.014604721 -0.0021928437
000050 40 f3 ee bb 1c 9f db bc 34 4e 0f bd 57 8d 29 3d
       -0.0072921813 -0.026809268 -0.03498669 0.041394558
000060 f2 ba d8 bc 22 86 c2 3c 8c a4 35 3c c0 10 72 3a
       -0.02645633 0.0237456 0.011086594 0.00092340633
000070 29 6c 2e 3d d9 5c 44 bd 06 d8 9b bc 68 3a 01 bc
       0.04258362 -0.04794011 -0.019023906 -0.00788746
000080 8d 99 60 3d 79 8a 3b bd b0 72 05 3b 75 ee 0c 3d
       0.054833937 -0.045786355 0.0020362549 0.034407098
000090 8f 6b 1d 3d 8c 43 67 bc 00 a2 0e bd 36 66 57 bd
       0.038432654 -0.0141152255 -0.034822464 -0.05258771
0000a0 6b b2 60 3d 4c 39 24 3c 48 2c 5d bd bc ef 2f bd
       0.054857653 0.010023426 -0.053997308 -0.042953238
0000b0 96 23 e3 3c 3e bc 80 3c 94 36 73 bc 70 49 0c 3b
       0.02772693 0.01571476 -0.014844555 0.0021406077
0000c0 7a 42 0d bd c4 95 2d 3c 3f e7 68 3d 50 83 e7 bb
       -0.034487225 0.010594789 0.05686116 -0.007065214
0000d0 64 ed ab bc a5 6b 60 bd 67 1c 12 bd 56 28 ca 3c
       -0.02098722 -0.054790158 -0.035671618 0.024677437
0000e0 7c 74 ca bc de e7 94 bc 99 6f 51 3d fb 28 58 3d
       -0.024713747 -0.01817697 0.05113182 0.052773457
0000f0 be b8 fd 3c bd 4e 3a 3d 03 42 19 bd b8 dc 0b bc
       0.030971881 0.045485247 -0.03741647 -0.00853651
000100 bb e2 26 3d a9 f8 38 bd 0a 83 cb 3c 96 76 f0 3c
       0.04074357 -0.045159016 0.024842758 0.029353421
000110 d4 ac 3f bc 67 94 07 3d ec d7 2e bc f8 29 4d bc
       -0.01169892 0.033100512 -0.010671597 -0.012522213
000120 af f1 1e 3d 0d c9 3c 3d a2 94 1e bd 75 96 4d bd
       0.038804706 0.046090174 -0.038715966 -0.050192315
000130 ff ca 14 3d eb 80 34 3d 56 a8 85 bc ba f4 fd 3c
       0.036326405 0.04406826 -0.01631562 0.031000484
000140 57 c0 e9 bc 77 f3 3e bd 9d f9 52 3d 1b 04 6b bd
       -0.028534098 -0.046618905 0.05150758 -0.057376962
000150 84 d7 c0 bc e7 c5 4c 3d 54 f8 6c 3c cf 25 43 3d
       -0.023540266 0.049993422 0.014463503 0.04764348
000160 f8 1d 8a 3b 1f 94 16 3d 17 c4 47 3d a9 8e 08 3d
       0.0042149983 0.036762353 0.04877099 0.033339176
000170 70 f2 52 bd 6c 57 13 3c ba 9d 4b bd 99 a7 6d 3d
       -0.051500738 0.008993011 -0.049710967 0.05802116
000180 66 a5 95 bc 44 9b 26 3c d2 cf 89 3c c5 42 05 3d
       -0.018267345 0.010168854 0.01682273 0.03253438
000190 20 d6 0f 3b f6 0f 28 bd e7 80 5d 3d 8e 80 84 bc
       0.0021947697 -0.041030847 0.05407801 -0.01617458
0001a0 84 30 07 3c 14 e7 69 3c b5 08 69 3d d2 73 4b bd
       0.008251313 0.014276285 0.05689307 -0.049671
0001b0 7c f3 61 bc 6e b3 d9 3c 02 8d 83 bc 00 c3 4f 3a
       -0.013790961 0.026574817 -0.016058449 0.00079254806
0001c0 d4 23 56 bd 75 16 70 3d e7 98 6d 3d f8 93 db 3b
       -0.052280262 0.058615167 0.058007147 0.006700989
0001d0 8a ba f0 3c 5e 2b 45 bd 2f 3a 00 3d 6c b4 1e bc
       0.029385824 -0.04813706 0.03130549 -0.009686571
0001e0 80 47 76 bb ca 64 d4 bc a8 08 a4 3b 8c e2 09 3c
       -0.0037579238 -0.025926966 0.0050059147 0.008415829
0001f0 cd d1 0f 3d c2 e6 f4 3c 8a ea 9a 3c ad 12 0c bd
       0.03511219 0.02989519 0.018910665 -0.034197498
000200 cd e9 0c 3d fa ce d0 bc 25 08 2c 3d 70 c1 55 3b
       0.034402657 -0.02548932 0.041999955 0.0032616518
000210 24 3f 6c 3c 24 75 24 bc 60 2f 4e bb f1 28 0b bd
       0.014419351 -0.010037694 -0.0031461343 -0.03397459
000220 f6 9a c1 bc ca fe 91 3c 00 76 50 3a 29 17 15 3d
       -0.023633461 0.017821688 0.00079521537 0.03639904
000230 ad 11 54 3d 32 98 da bc 3a 3d a0 bc ef 0d 13 bd
       0.05177467 -0.0266839 -0.019560445 -0.03590196
000240 bc 8d b0 bd 91 c0 9d bd af 8e 63 bb 46 93 00 bd
       -0.08620784 -0.07702745 -0.0034722497 -0.03139045
000250 71 98 7c bd 07 13 9e bd 46 db a1 3d a5 c5 ee bc
       -0.061668817 -0.07718473 0.07903151 -0.029146979
000260 9c 4a 92 3c 4a a9 a1 3d e2 7f 21 bd 0a 95 eb 3c
       0.017857842 0.078936175 -0.0394286 0.02875759
000270 e9 41 54 3d 8d 5f 9d bd f0 24 59 bd 34 e5 4a 3d
       0.05182067 -0.076842405 -0.053013742 0.04953499
000280 2c fc 0b 3d 33 ff a3 3c 35 55 9c bc 3f 6c 59 3d
       0.034176037 0.02001915 -0.019083599 0.053081747
000290 97 40 17 3c 3f 6c 67 bd df 31 6a bd 87 1f 59 bd
       0.009231708 -0.056499716 -0.057176467 -0.053008582
0002a0 1c b3 22 bd c6 e5 37 3e 50 54 6b 3d 3c d5 ca 3d
       -0.039721593 0.17958745 0.057453454 0.099039525
0002b0 3d 90 a7 bc 27 38 81 bd 26 e5 a0 3c b5 e0 c7 bd
       -0.02045452 -0.06309538 0.019640516 -0.09759656
0002c0 d8 6d 26 bc b8 19 60 bd 10 94 c3 bd 1e a8 f4 bc
       -0.010158025 -0.054712027 -0.09549725 -0.02986532
0002d0 1b 42 5c 3d fd 60 c2 bb 6c fd 85 bd 69 9d 22 bd
       0.05377398 -0.005931972 -0.06542477 -0.0397009
0002e0 e9 31 ac bc 0f c4 a6 bc 82 cf 52 bd 50 5f cc bc
       -0.021019893 -0.02035716 -0.051467426 -0.024947792
0002f0 10 53 12 bd 4e ec d1 bc f4 fd d3 3b 1e d0 05 3d
       -0.035723746 -0.025625374 0.0064694826 0.03266918
000300 20 ed a4 bd 35 a6 1b 3d 0f 84 40 3d fa 8a ae 3d
       -0.080530405 0.038000304 0.04700094 0.085226014
000310 8f c7 19 bc f2 eb ae bd 4a 3b 93 bb 5f 50 84 3d
       -0.009385957 -0.08541097 -0.004493152 0.06460642
000320 37 6b b0 3c ed 9b a9 3c be 83 95 3a f9 6b 81 bd
       0.021535499 0.020704234 0.001140706 -0.06319422
000330 cc 15 5d 3d 8e 6c 59 bc c9 1c 9a 3c 97 d2 ca bd
       0.053975865 -0.01327051 0.018812554 -0.09903448
000340 e9 07 d1 3c 88 78 4b 3d 26 87 13 bc fb 95 c9 bd
       0.025516467 0.049675494 -0.00900439 -0.0984306
000350 c7 42 23 bc 86 03 39 bd 87 ab 90 3d 82 f7 8e 3d
       -0.009964651 -0.045169376 0.07063966 0.06980802
000360 d8 37 57 bd 81 6e ca bd bc 3c b1 bc ef b6 09 bc
       -0.05254349 -0.09884358 -0.021635406 -0.008405431
000370 6c 8f b8 bd 11 3e e1 bc e1 45 96 bc 71 dd d0 3b
       -0.090117306 -0.027495416 -0.018343868 0.006374054
000380 8c 67 a8 3d 80 52 2d bb e6 83 0a bc 3b 9d 96 3d
       0.08222875 -0.002644688 -0.008454299 0.07354208
000390 ab b3 63 bd 46 df 03 3c 41 df fe bc 4e c8 05 bd
       -0.055591267 0.008048838 -0.031112315 -0.03266173
0003a0 25 4a 19 bd 13 93 12 bd 8f 23 b7 bd aa 7e 0d bd
       -0.037424225 -0.035784792 -0.08942329 -0.034544624
0003b0 44 8f 15 3c b1 34 44 3c 7b 5f 54 3a 37 a0 6b 3c
       0.0091283955 0.011975453 0.0008101386 0.01438146
0003c0 48 7c 2f bd 07 0f 41 3c d4 ce a3 bd 42 85 b2 bd
       -0.042843133 0.011783368 -0.07998434 -0.08716823
0003d0 e7 77 b4 bd cf bc d7 bd 9e fb 9a 3b 44 25 11 b9
       -0.08811932 -0.10534059 0.004729702 -0.0001384216
0003e0 82 19 78 3c b0 d1 4a ba 76 39 1b bd 53 88 a0 bd
       0.0151428 -0.00077369343 -0.037896596 -0.07838502
0003f0 39 42 2a 3d 23 11 18 bd f5 44 aa bd 99 c8 18 bc
       0.04156706 -0.037125718 -0.08313934 -0.00932517

layer1.bias f4 [512]
000000 0a 2d ef bd 75 1c 62 bd c9 a2 05 3e 0a ef 65 bc
       -0.116785124 -0.05520292 0.13050379 -0.014034042
000010 00 ce 31 3d 28 97 08 3e 06 8e c6 bc 90 33 7e bd
       0.043409348 0.13338912 -0.024237644 -0.062060893
000020 8f 74 c3 3b c7 3f 7e 3d 80 29 02 3d 27 97 14 3b
       0.0059648226 0.06207254 0.03177786 0.0022673102
000030 d4 cf 5d bd 0c f1 e1 bd d2 7e ae bd 6d 27 d1 bd
       -0.05415328 -0.11032304 -0.08520283 -0.10212598
000040 b6 ed 11 3e 43 2a 97 bd 41 49 e6 3d b4 b3 36 3c
       0.14250836 -0.07381108 0.11244441 0.011151243
000050 d7 3e c0 3d bd f7 87 bd 21 68 e8 3d 92 ae e2 bc
       0.09386986 -0.06639049 0.11347986 -0.027671132
000060 84 9c ea 3c ba 13 59 bd 8f 51 c8 bc 3b 62 93 bd
       0.028639086 -0.05299733 -0.024452953 -0.0719647
000070 aa ac 94 bd e6 bf 91 3d af e4 1a bc b5 7d 00 bc
       -0.072594956 0.0711668 -0.0094539365 -0.007842471
000080 7e ad 8a 3e 92 96 bb 3d 1c 6a 88 bd 37 1f d2 bd
       0.2708549 0.091595784 -0.06660864 -0.1025986
000090 52 a7 8e bd 75 92 01 bc 19 b2 7a 3d 6a 34 72 bc
       -0.069655076 -0.007908453 0.061205003 -0.014783004
0000a0 61 fe 33 3d a0 a0 cf 3d b8 c7 29 3b 34 47 e1 bc
       0.043943767 0.10138059 0.0025906395 -0.027499773
0000b0 0b ec ad bc 88 a0 5b bb 81 4b d0 bd dd f3 89 3d
       -0.021230718 -0.0033512432 -0.10170651 0.06735966
0000c0 ba dc d6 3b 99 92 97 bc a9 27 ed 3d 4c 36 83 3d
       0.0065570744 -0.01850252 0.1157983 0.06406841
0000d0 66 6d 74 bd 0e e7 23 3d 53 18 44 3c 96 58 99 bd
       -0.059674643 0.040015273 0.01196869 -0.074875996
0000e0 37 e1 fb 3d b6 08 8f 3b ed a3 b3 3b 75 39 7c bd
       0.12298816 0.004365052 0.005482188 -0.061578233
0000f0 9c 9a 7a bd 45 f6 23 3d 07 2e 1e 3d b2 c2 9b bc
       -0.061182603 0.040029783 0.038618114 -0.019013736
000100 be b8 c4 3c d8 8f 96 bd d5 3c 6e bd af 25 66 3d
       0.024013873 -0.07351655 -0.058163483 0.05618828
000110 36 58 d8 3d ef 61 45 bd 2c 37 b1 3c 83 44 22 bd
       0.105637 -0.0481891 0.021632753 -0.03961612
000120 f8 30 a7 bd cd a8 36 3e 76 20 9c bc 05 53 95 bd
       -0.08163637 0.1783783 -0.019058447 -0.07291225
000130 aa da cd 3d cf 26 96 bd 11 18 47 3d 8b 98 8d bd
       0.100514725 -0.07331621 0.048606936 -0.06913861
000140 7c 1a 34 3e a5 a6 e5 3d 9c 38 eb 3d 77 76 bd bc
       0.17588228 0.112134255 0.11485407 -0.023127778
000150 a0 48 a5 bc 25 a0 b9 bd c6 87 1f bd e0 5b 10 3e
       -0.020176232 -0.09063748 -0.038947843 0.14097548
000160 e2 22 f8 3c 8f 5c c4 3c 16 b2 1b 3d 0c ec 23 bd
       0.03029007 0.023969917 0.038011633 -0.040020034
000170 44 2e dd bb bf 86 86 bd c6 3f d4 3c e8 b2 66 bc
       -0.0067499 -0.065686695 0.025909316 -0.0140807405
000180 c2 4e 4b bd 7f 88 84 bd 92 ba e9 bd be 81 98 bd
       -0.049635656 -0.06471347 -0.114125386 -0.07446621
000190 c8 88 90 3d 81 30 68 ba 18 f9 38 3d ad 83 49 3e
       0.07057339 -0.00088573253 0.04515943 0.19679137
0001a0 f0 31 a7 bd c5 12 d2 bd 16 b1 28 3e e8 f2 0f 3d
       -0.08163822 -0.10257486 0.16473803 0.035143763
0001b0 01 8f 9e 3d 54 99 7c 3c 1e 3b 63 bd d1 95 19 bd
       0.077421196 0.015417416 -0.0554763 -0.03749639
0001c0 b2 a5 8c bd a9 07 db bc 0b 47 fb b7 96 2b fe 3d
       -0.068675414 -0.026737051 -2.9954614e-05 0.12410657
0001d0 b0 49 08 3c d6 97 1b bd 0d 91 ef 3c c3 98 20 3e
       0.00831835 -0.0379866 0.02924397 0.15683274
0001e0 34 59 a9 bd 1c cb b7 bd f7 b5 6a bd ea e8 0a 3d
       -0.08268967 -0.08974287 -0.05730244 0.03391353
0001f0 84 cc af bd 02 ad fd 3a b2 12 d0 3b 1a 3f 08 bc
       -0.0858393 0.0019353929 0.006349885 -0.008315826
000200 16 00 3a 3e 5a 13 a5 bb 29 b9 c9 bc 03 5e c2 3c
       0.18164095 -0.0050377073 -0.024624424 0.023726469
000210 3a eb 9c 3d cf e1 9c bd 22 f5 bb 3d 79 4c 98 3d
       0.076620534 -0.07660257 0.09177615 0.07436461
000220 e8 18 51 bd 22 b8 90 3c d4 af 3c 3e 97 27 6b bd
       -0.051049143 0.017665926 0.18426448 -0.057410803
000230 38 e9 66 3c 16 f5 a1 3d 39 f3 9f 3a 00 f4 33 3d
       0.01409369 0.079080746 0.0012203223 0.04393387
000240 0b 5f bb bd 75 f7 66 3e c1 58 dc bd 8e d8 1f 3d
       -0.091489874 0.22555335 -0.10759116 0.039024882
000250 0f ee 98 3b 34 7b a1 bc 3e 79 53 3b 6e ab 88 3d
       0.0046670507 -0.019712068 0.003226831 0.066733226
000260 85 60 b4 bd 0b 92 68 3d c1 c7 8f bd 88 55 ab bd
       -0.08807472 0.056779902 -0.07020522 -0.08365923
000270 d8 86 02 3d 85 8e ff bd 67 28 a1 bd 93 75 5f 3d
       0.03186688 -0.12478355 -0.07869034 0.054555487
000280 22 a1 b2 3d 7d 9f 85 bd 32 c8 ad b9 56 62 d4 3d
       0.0872214 -0.065245606 -0.00033146288 0.103703186
000290 02 e4 e6 bd 7d 18 39 bd d8 92 91 3d 5a d6 fc 3d
       -0.11273958 -0.04518937 0.07108086 0.12345572
0002a0 d0 44 2f 3c 0e 67 62 bd 1b 0c e1 3d 27 7b 94 3a
       0.0106975585 -0.05527406 0.10988637 0.0011328206
0002b0 4a 1d 2e 3d 07 2f 93 bd cc a0 ac bd c0 30 93 3d
       0.0425084 -0.07186704 -0.08429107 0.07187033
0002c0 8a 40 77 3d 4f 6f b2 bd 7d 1b eb 3d 30 06 b0 3d
       0.060364284 -0.08712637 0.11479852 0.0859493
0002d0 9d f6 d9 3d 38 0a c2 bd e3 a4 9c 3d ae 80 c3 bc
       0.10642741 -0.09474605 0.07648637 -0.02386507
0002e0 6d 1c 3a bd bb 19 db 3d 2d 09 84 bd 32 f9 06 bc
       -0.045437265 0.10698267 -0.06447063 -0.008238124
0002f0 04 c9 4a bc 49 b1 4c bd 53 7c ab bd 74 14 23 3c
       -0.012377027 -0.04997376 -0.08373322 0.009953607
000300 2a 2a 60 3d 49 78 94 3d 9e 6a af bd 25 b3 40 3b
       0.05472771 0.07249505 -0.085652575 0.0029403653
000310 4d 50 59 b9 b5 d9 c2 bd 45 e0 27 3d b0 89 cf 3d
       -0.00020724647 -0.095141806 0.040985364 0.10133684
000320 e4 26 c5 bd 94 08 57 bd 7b 06 84 3c 2e 8a 4b 3d
       -0.096265584 -0.052498415 0.016116371 0.049692325
000330 b7 2d f4 bb 6d 9f 9f bd 74 6c 45 3d b1 cb 79 bd
       -0.0074517387 -0.0779408 0.048199132 -0.06098527
000340 6a 50 4e bd a2 19 d9 bd 4a 8f 1c bd e3 06 79 bd
       -0.050369658 -0.10600592 -0.03822259 -0.060797583
000350 9a da 44 bd b7 14 8f 3d 07 ff fd 3c e2 63 04 be
       -0.048060037 0.06986373 0.031005396 -0.12928727
000360 9e eb 07 3e 73 b2 0d bd 76 d6 57 3d 48 17 ba 3d
       0.13273475 -0.03459401 0.05269476 0.09086472
000370 e5 2b 21 3e dc 86 b8 bd 4f 6d 5f 3d 74 bf 85 3d
       0.157394 -0.090100974 0.054547604 0.065306574
000380 e8 cd a9 bd a0 6a 85 3c 1c b5 c9 bd b5 ff 03 3e
       -0.082912266 0.016286194 -0.09848997 0.12890513
000390 f8 be 86 bd 54 31 9e bd 9d 24 54 bd 19 24 61 bb
       -0.06579393 -0.07724252 -0.05179273 -0.0034353791
0003a0 a8 aa 0d bd d7 18 53 3c 02 54 af 3d 54 06 f3 bc
       -0.03458658 0.01288434 0.08560945 -0.029666103
0003b0 1b 96 76 bc 7e 42 78 bd bd f4 9b bd 33 fd 75 3c
       -0.015050436 -0.060610287 -0.076150395 0.015013981
0003c0 6d 5f 90 3d 6f e8 9e bd 49 cf 78 3d 40 b3 73 bd
       0.07049451 -0.07759177 0.060744558 -0.059497118
0003d0 38 f7 10 3d 84 c7 9a bd d8 db 4c 3d 9f c9 f1 bb
       0.035392016 -0.07557586 0.050014347 -0.0073787714
0003e0 93 73 ba bd cc b7 02 bd 80 2a e6 3d 89 24 6a bd
       -0.09104075 -0.031913564 0.11238575 -0.05716375
0003f0 4e fe 27 3e 2d 4e ae bd 45 8b 31 bd 0e 65 2f 3e
       0.16405603 -0.085110046 -0.04334571 0.17128393

layer2.weight f4 [128, 512]
000000 49 17 37 3d 01 fb ba bb c8 69 4a bd 57 da a5 bd
       0.04469994 -0.0057061915 -0.049417287 -0.08098286
000010 2e 04 22 bd c3 be 42 bd 9c 4f 52 bd 11 44 c0 3d
       -0.039554767 -0.047545206 -0.051345453 0.09387983
000020 b0 c7 d5 bd 73 7c 8e bd 57 03 a3 bc 82 e8 98 3b
       -0.10438478 -0.069573306 -0.019899053 0.004666389
000030 b8 30 8e bc 10 1c c1 3c 57 f9 2b bd 6d e2 4c 3d
       -0.017357215 0.023572952 -0.041985836 0.050020624
000040 99 95 0b 3e c5 b0 38 bc 6d 5e 7e bd 36 2f 00 3d
       0.13631286 -0.011272614 -0.06210177 0.031295024
000050 60 29 20 bd 7b 75 6a 3d 70 ad 3d 3c 94 09 5e 3d
       -0.03910196 0.057240944 0.011576995 0.054208353
000060 42 df 15 be 8a 7c d7 3d 8b 86 4a bd 3d df 35 3c
       -0.14635947 0.10521801 -0.049444716 0.011100587
000070 e3 13 de 3b 8d 13 b4 bd e5 68 b7 bd 5d 9f 4d 3b
       0.006777273 -0.087927915 -0.08955554 0.0031375505
000080 cc cb c4 3d a7 3c 1d be fd 64 ee 3c 3d 0a db 3a
       0.09609184 -0.15355168 0.02910089 0.0016711425
000090 c8 d0 ac 3c b9 fd 29 bc eb 51 1e bd ab dd b7 3c
       0.021095648 -0.010375434 -0.03865234 0.022444567
0000a0 47 f7 41 3d 06 b4 0c bd f3 4b 0b bd eb 86 52 3d
       0.047354963 -0.03435137 -0.034007978 0.0513982
0000b0 6e ff 4b 3d 0c 29 6c bd a1 1c d8 3c 20 97 23 bd
       0.049804144 -0.057656333 0.026380839 -0.039939046
0000c0 13 bf e9 3b 45 c9 84 3d 54 f8 9f bd 33 51 60 3c
       0.0071333735 0.064837016 -0.07811037 0.013691234
0000d0 ca de 65 3c d1 3c 5f bd 2d 25 a5 3d 3a 28 66 3c
       0.014030168 -0.05450136 0.08063731 0.014047677
0000e0 57 c9 64 bc 39 6c 08 bd 24 64 86 3b a4 c9 7d bd
       -0.013964019 -0.033306334 0.004101293 -0.061959878
0000f0 08 fd 06 bd e2 89 71 bd bb 05 57 3d 6a 2e 50 bd
       -0.032956153 -0.058969386 0.0524957 -0.050825514
000100 43 ee f3 38 93 0a 40 bd 5b f7 f7 bc cb ae 18 3c
       0.00011631523 -0.046885084 -0.030269315 0.009319018
000110 3f 0e 8c bd 47 26 29 bc 75 35 f0 3c 51 ed 60 3b
       -0.06838655 -0.010324067 0.029322365 0.003432114
000120 d7 31 28 bd 32 60 97 3d ab e5 06 3d 1c b7 ca bc
       -0.041063156 0.07391395 0.032933872 -0.024745516
000130 1c 14 60 bd 3b 9e ca 3b ee b7 4d bd 7c f6 f5 39
       -0.054706678 0.0061834133 -0.050224237 0.00046913687
000140 ce 64 09 be 2b 67 e1 bd f8 f6 06 be 49 dc 8d bc
       -0.1341736 -0.11006006 -0.13180149 -0.017316954
000150 f8 29 1b be 85 26 17 3d 15 13 1c bd 53 c9 2e be
       -0.15152729 0.03690197 -0.038104136 -0.17068987
000160 17 a9 b5 3b 99 c9 cd bd ee c8 ad bd e1 22 e4 3c
       0.0055438387 -0.10048217 -0.0848559 0.027848663
000170 f0 ee a1 bd a8 85 62 bd 1e ee d6 3d fb 8a d4 bd
       -0.07906902 -0.055303246 0.10494636 -0.10378071
000180 b6 43 2a 3d 93 83 b3 3c 63 4b e5 3c ff 29 07 bc
       0.04156848 0.021913325 0.027990049 -0.008249759
000190 f9 fc b0 3d 37 69 75 3c 57 d9 b8 3c 11 59 97 3d
       0.08642001 0.014978698 0.022564573 0.07390035
0001a0 13 63 d7 bd a0 6e 30 3c fd 44 42 bd 2d 3d 18 3c
       -0.10516944 0.010768563 -0.047429074 0.009291929
0001b0 67 18 64 3c 38 ab 6f bc f3 d9 ee 3b fd 69 25 3d
       0.013921834 -0.014628224 0.007289165 0.04038428
0001c0 a9 25 f3 bc 71 62 97 bd 81 10 20 bd 27 9b 03 3d
       -0.029681044 -0.07391823 -0.03907824 0.032130387
0001d0 68 18 80 3d a4 f8 b6 3c 26 9d 71 bc 5b fa 7e bc
       0.06254655 0.022335358 -0.01474694 -0.015562619
0001e0 98 d1 db bb a9 4a e3 bc 96 e1 31 3d 27 ba 5f bd
       -0.006708335 -0.027745562 0.043428026 -0.054620888
0001f0 02 72 0a 3d 22 51 c7 3a 54 d6 13 bd 19 32 82 bd
       0.033800133 0.0015206675 -0.03609307 -0.063572116
000200 52 24 74 bd cd b7 05 bd ee 03 c3 bd 1a 24 de bb
       -0.05960495 -0.03264599 -0.09522234 -0.006779206
000210 31 16 8a bd d7 08 1d bd 50 d5 fd 3c 3a dc b6 bd
       -0.06742514 -0.03833851 0.030985504 -0.08928724
000220 ad 10 a9 bb b0 44 4a bd 43 bb e2 bc 2f f2 08 3d
       -0.0051594586 -0.04938191 -0.027677184 0.03343409
000230 72 9c 48 bd 63 31 d2 bd 6b 31 70 bc 14 02 4c bc
       -0.048977323 -0.10263326 -0.01466022 -0.012451667
000240 a9 c2 62 bd 97 1a 79 bd 06 03 77 bd 5a 50 8a bd
       -0.055361424 -0.060816374 -0.060305618 -0.06753607
000250 bb 3a 9b bc 9c 01 14 3c 5b 6c b6 bd fd 1b 3d bd
       -0.018948903 0.009033587 -0.08907386 -0.04616927
000260 4a 2c 7b 3c f3 c4 f4 3c 3f 55 40 bc 84 79 88 bb
       0.015330384 0.029879069 -0.011739074 -0.0041648764
000270 85 c3 c9 bd 24 ac 7e 3d 85 b7 78 bd b9 c5 d4 bd
       -0.098517455 0.062175885 -0.060721893 -0.10389275
000280 c0 f0 d2 bd 38 82 d8 bb 6f c6 55 3d 5b b6 53 bd
       -0.10299826 -0.00660732 0.052191194 -0.05168758
000290 7e 9d fa bc d1 8e a2 bc 64 9e c3 3c 40 28 41 bd
       -0.030592676 -0.01984349 0.023879237 -0.047157526
0002a0 c2 11 b5 bc f3 43 25 3c ce de ca bd 7d 3c 9a bd
       -0.022103194 0.010087001 -0.09905778 -0.075310685
0002b0 17 89 5e bd 97 72 93 bd ab 56 e7 3d 08 c0 58 bd
       -0.054329958 -0.07199591 0.112958275 -0.05291751
0002c0 cd ce 35 bd 52 3b a6 bd a5 1d 98 bd 8d 4e c1 bd
       -0.044386674 -0.08116783 -0.07427529 -0.094388105
0002d0 3e f7 9e bd 0e 87 f7 3b 9f 98 aa bd 51 40 bf bc
       -0.077620015 0.0075539416 -0.083298914 -0.023346098
0002e0 91 be 28 3d 24 6f 53 3d 39 51 7c bc c5 58 3a bd
       0.041197363 0.051619664 -0.015400224 -0.045494813
0002f0 61 12 f6 3c ca cd 08 be 85 35 af bc dd f5 66 3d
       0.03003806 -0.13359752 -0.021387825 0.056386817
000300 2d c7 57 bd 65 52 5d bd 81 00 79 3d b0 30 2d bc
       -0.052680183 -0.054033656 0.060791496 -0.01057069
000310 79 92 90 bc 22 a0 38 3a 81 8e 7f bd 03 8a 99 bd
       -0.017647969 0.00070429046 -0.06239176 -0.07497027
000320 30 e1 14 3a 70 dc b3 bb f9 a4 c6 bc 35 74 02 be
       0.00056793075 -0.0054889247 -0.024248587 -0.12739642
000330 fd 08 fe 3c 86 80 2f bd 89 e7 84 3d 8f b5 00 bc
       0.031010145 -0.04284718 0.06489474 -0.007855787
000340 2f 33 97 bd 36 76 02 3c 00 71 62 3d d8 0c 83 bd
       -0.07382809 0.007962754 0.055283546 -0.06398934
000350 f8 69 39 bd 8f 12 c7 bd d6 3a 66 3b d8 3e 94 bc
       -0.045267075 -0.09720337 0.0035130284 -0.018096372
000360 61 6c 9f bd 43 c9 30 3c 27 3c 37 3d f1 13 42 3c
       -0.077843435 0.010790172 0.0447351 0.011845575
000370 ed f1 ca bd 99 5e 0d 3c eb 79 7a 3c 3d 91 50 3d
       -0.09909425 0.008628511 0.015287857 0.05091976
000380 90 c4 b8 bc 2e d0 72 3c d6 6d bb bc f6 53 b5 bd
       -0.022554666 0.014820142 -0.022879522 -0.08853905
000390 cb 4d ac ba c8 ea 47 bd 68 45 60 bd 5d f9 4c bd
       -0.0013145743 -0.04880789 -0.05475369 -0.0500425
0003a0 e6 a7 12 bd e5 a4 56 bd 98 44 b6 3d dd 17 35 bd
       -0.03580465 -0.05240335 0.08899802 -0.04421221
0003b0 8e 16 4f bd 0c 21 5d 3c 4e 80 f3 bc 21 76 a8 3d
       -0.05055862 0.0134966485 -0.029724266 0.08225656
0003c0 dd f0 d5 bd 81 8f de 3c c9 21 0e bd ac 80 20 bd
       -0.10446332 0.027168037 -0.03470019 -0.03918521
0003d0 27 87 04 bd 09 29 47 3d 19 4b 17 bb 41 ec 05 3d
       -0.032355454 0.04862312 -0.0023085533 0.032696012
0003e0 b7 1a 8d 3b 40 b5 f8 3c a2 6d 01 be 5d 31 30 bd
       0.004306163 0.030359864 -0.12639478 -0.043015826
0003f0 a7 81 2f bd 98 e6 2c bc 5d 77 24 3e ae 99 82 3b
       -0.042848255 -0.010553025 0.16061158 0.003985605

layer2.bias f4 [128]
000000 4e 11 ac 3d c0 07 6c bc 45 5c b4 bc 0d 39 5f bd
       0.08401738 -0.014406145 -0.022016654 -0.054497767
000010 b6 48 8d 3e f0 48 77 bd 52 03 73 3d 66 37 23 bd
       0.27594537 -0.060372293 0.05932934 -0.039847754
000020 0b 81 a4 3d 45 bf 85 3e 22 9e 29 3e ee a3 8a 3c
       0.080324255 0.2612249 0.16564229 0.01692387
000030 8e 53 d3 bc 2a 8c e6 3d 8d f8 45 bd ae 0b 31 bd
       -0.025796678 0.11257203 -0.04833274 -0.04322403
000040 5b 48 b7 3c 91 cd 27 bd 59 53 dd bc a8 44 db 3d
       0.022373369 -0.040967528 -0.027017282 0.107064545
000050 98 65 60 3e 8f 85 85 bc 54 9e 80 3d c4 6c 42 3e
       0.21913755 -0.016299037 0.06280199 0.18986803
000060 3f 58 30 3d 98 e4 7a 3d 0d fe 80 3d e7 23 2d bd
       0.043052908 0.06125316 0.06298456 -0.042270567
000070 19 60 a9 bc c7 ff 3e 3d 17 ab 06 bc 2a 08 a1 3c
       -0.020675706 0.046630647 -0.008219502 0.019657213
000080 90 15 99 3c 48 75 68 bd bb 3e 3a bd 87 1f c6 3d
       0.01868704 -0.056752473 -0.04546998 0.09673982
000090 c7 91 3e bd 1c d7 0b bc c4 9b 45 3d 2f 91 b2 3d
       -0.046525743 -0.008535173 0.048244253 0.08719098
0000a0 be d7 84 bc 91 fe 52 3c 39 9b 1f 3e 3f 5a e8 3b
       -0.016216155 0.012878076 0.15586556 0.0070908363
0000b0 96 a7 e4 bc bf 19 1f bd fb c7 37 3e 55 07 20 bd
       -0.027911942 -0.038842913 0.1794738 -0.039069492
0000c0 1e 46 f1 3c 35 23 79 3e a1 1a a3 3d 10 9a 8b 3d
       0.02945238 0.24329837 0.079640634 0.068164945
0000d0 20 d4 89 bd 80 61 c2 3c 02 af 45 3e cb df 5b 3d
       -0.06729913 0.023728132 0.19305041 0.053680222
0000e0 7f b8 39 bb 20 0b 60 bd 1c 42 77 3a 3d d2 de 3d
       -0.0028338728 -0.05469811 0.00094321533 0.108799435
0000f0 92 d3 5f 3e 77 3c f9 bc f9 03 07 bd f6 c3 c3 bc
       0.21858051 -0.03042434 -0.032962773 -0.023897152
000100 c3 56 fd 3d 44 d5 6f 3e 18 bc 31 3e 9d 7a c2 3c
       0.12370064 0.23421198 0.17356908 0.023740107
000110 7e f4 4c 3c eb ac a6 bc 5b 18 8a 3b bc 3a 6c bd
       0.012509463 -0.020346126 0.004214329 -0.0576732
000120 93 bd 5d bd 4a 42 c8 3c 7d e7 71 3e 51 8e fc bb
       -0.05413587 0.024445672 0.23623462 -0.007707395
000130 5e a8 ab 3b 27 19 93 bc 54 25 de bc 60 7e 55 bb
       0.005238577 -0.01795633 -0.027117409 -0.0032576546
000140 e9 7d 40 bd 8f c7 a0 3c bf ba 72 3b 30 8a ed 3c
       -0.046995077 0.019626407 0.003703758 0.028996557
000150 f0 ec 49 3d af de 32 bd ba bc 69 3b 5f fd 9a bc
       0.049298227 -0.0436694 0.0035665468 -0.018919645
000160 3d 39 5d 3d 24 35 43 bd b5 ba f4 3d 0b e3 00 bd
       0.054009665 -0.0476581 0.11949674 -0.031466525
000170 da a0 f7 3d c4 00 4a bd b2 3a 8a 3e b5 38 2e 3c
       0.12091227 -0.049317136 0.26997906 0.010633637
000180 02 18 19 3e b8 fb e0 3a 4a d1 dd 3c 94 54 f2 ba
       0.14950565 0.0017164862 0.027077336 -0.0018488341
000190 6c 17 ba bc c5 c4 a9 bd 16 de ac 3c b1 bc d1 bc
       -0.022716247 -0.08289484 0.021101993 -0.02560267
0001a0 3c a5 d7 3b 6c f8 c8 3d c6 8d 74 bb 75 11 52 bc
       0.006580977 0.09813008 -0.003731595 -0.012821545
0001b0 0d 98 43 3c f9 11 a6 3d 1d a4 20 3e b8 8e d1 3c
       0.011938107 0.08108897 0.15687604 0.025580749
0001c0 08 1f c6 bc ef f8 5a 3b 60 0c 84 bd 15 0e a9 3b
       -0.024184719 0.0033412536 -0.06447673 0.0051591494
0001d0 0a f7 28 bc 83 f9 78 3c 34 37 92 bd 84 79 b9 3d
       -0.010312805 0.015196207 -0.071394354 0.090563804
0001e0 bd e7 0d 3e a6 36 42 bd a6 7b 6d bc 9d de 0c bd
       0.13857932 -0.047415398 -0.014494812 -0.034391988
0001f0 e6 f5 63 3e dc a9 cd 3c c1 03 f8 bb bd ae 19 bd
       0.22261772 0.02510541 -0.007568807 -0.03752016

layer16.weight f4 [1, 128]
000000 fa 1c 50 3d 91 a3 00 3b d0 c1 06 3c d1 8c e8 b8
       0.050808884 0.0019628743 0.008224919 -0.00011088851
000010 18 c4 bf bd d4 77 0a bc d2 28 44 3d 7e ab 3d 3d
       -0.09363574 -0.008451421 0.04789049 0.046306126
000020 5a 95 e2 3c 95 f1 67 bd eb 81 7f bc 9f 4f 67 bc
       0.027659107 -0.056626875 -0.01559494 -0.014118104
000030 59 31 0b bc 08 a1 5f 3d 84 7c e6 3b a8 6c 92 bc
       -0.008495652 0.05459693 0.0070338864 -0.017874077
000040 4f b0 8a 3d 85 d1 eb 3b ca 0a 81 3d ba 43 50 3d
       0.067719094 0.0071966075 0.06300886 0.05084584
000050 91 e5 82 bd 65 2f e7 3a 69 fc 83 3d fd fd 28 bd
       -0.063914426 0.0017638026 0.06444628 -0.041257847
000060 86 03 54 bd 9a 72 02 bc 38 50 41 3d 52 78 b1 bc
       -0.051761173 -0.007961893 0.047195643 -0.021663819
000070 a7 cb f3 3c ac cb 48 3d 1f 64 88 bd cb 2e 32 3c
       0.029760195 0.04902236 -0.066597216 0.010875414
000080 4d 7e cd bb bc 80 05 bc ce 4d 32 bd 89 16 25 3d
       -0.0062711597 -0.008148368 -0.04353123 0.040304694
000090 93 d1 85 bd c4 99 66 bc 09 1d b0 3c b1 fd 32 3d
       -0.06534114 -0.0140747465 0.02149822 0.04369897
0000a0 bb 11 34 bc 34 5d 88 3d 97 3b 1f 3d 6d 3f 95 3d
       -0.010990555 0.06658402 0.03887519 0.07287488
0000b0 62 31 d3 bc ea d3 1a bd a1 61 f4 3d 84 83 b9 3c
       -0.025780383 -0.037799753 0.11932684 0.02264572
0000c0 0e ad 7c 3d 6b 4d cb bd 4d 7d cb 3d cb 4f 35 bc
       0.061688475 -0.09926876 0.099360086 -0.011066387
0000d0 a7 8e 88 3c 42 d0 0a 3a bf 6b 88 bd 60 dc 87 3d
       0.016669584 0.0005295315 -0.06661176 0.0663383
0000e0 9b df 12 bd 73 6a 38 bc f5 0b c1 3c 6c 48 c4 3c
       -0.035857778 -0.011255848 0.023565272 0.023960315
0000f0 e7 d8 28 bd 34 96 8a bb ea cd c4 3c 29 03 18 3c
       -0.04122248 -0.0042293314 0.024023969 0.009278097
000100 68 26 a9 3b dd 79 06 bd 9d 79 18 3d 05 36 8d 3d
       0.005162049 -0.03283106 0.037225354 0.06895069
000110 b3 53 fc 3b 37 97 97 3b 62 01 19 bc 0b aa 82 3b
       0.0077004074 0.0046261805 -0.009338709 0.003987556
000120 c3 cf 97 ba 98 ba 39 3d 0a d2 26 bd 9e 60 80 3d
       -0.0011582304 0.045343965 -0.040727653 0.06268428
000130 f4 df 24 bd ad 17 86 bd 3e 4d 06 3b 2e e8 87 bd
       -0.04025264 -0.065474845 0.0020492817 -0.06636082
000140 eb 19 02 bd 7c 2e 59 3d 02 25 9b 3c ab 7d c3 3d
       -0.031763 0.053022847 0.018938545 0.09545454
000150 86 1e 65 3d 1d ec d9 bb 0b f5 6f 3b 2e de 1c bd
       0.055937313 -0.0066504613 0.0036614563 -0.038297825
000160 7c f0 02 39 03 e0 88 3c df 17 8a 3d b5 a8 b6 bc
       0.00012487354 0.01670838 0.06742834 -0.022297243
000170 eb 67 81 3d 2a 54 3c 3d e9 89 90 bd c9 26 56 bc
       0.06318649 0.045978703 -0.07057554 -0.013070771
000180 a6 a2 00 bb 2f 68 1c 3c cd 36 33 3d 33 09 01 3d
       -0.0019628196 0.009546324 0.043753434 0.031502914
000190 22 fe db 3c 4b 26 23 bc 8a 8c 0b 3c 3c 0a bb bb
       0.026854578 -0.00995786 0.008517394 -0.005708007
0001a0 82 3d 6d bc b0 e7 2d 3d e1 a7 fd bc 5e 85 29 3d
       -0.014479997 0.042457283 -0.03096384 0.041386954
0001b0 89 48 70 39 59 a7 39 3d e3 e0 c1 bc 4b d3 85 ba
       0.00022915205 0.04532561 -0.023666805 -0.0010210065
0001c0 60 63 34 3c 38 cf df 3c 60 56 c5 3b c4 06 49 bc
       0.011010021 0.02732049 0.0060222596 -0.012269679
0001d0 fb 3a 13 bd ce 0f e7 bc 43 a7 cb 3b de 52 c5 3c
       -0.03594492 -0.028205778 0.0062150075 0.024087366
0001e0 e8 39 d1 bc bd 42 d7 bc a4 34 20 3a cc 23 06 3d
       -0.025540307 -0.02627694 0.00061113597 0.032748982
0001f0 6d f7 69 bd 21 e2 09 3c 23 89 d2 3c 7a c1 03 36
       -0.05712073 0.00841573 0.025700158 1.963314e-06
